hello_torch/le_net_weight.pkl (torch_old, 247101 bytes, 5 tensors)

model.0.weight f4 [6, 1, 5, 5]
000000 6f 17 a3 bd da 25 2e be ea 00 33 be 54 36 0f bd
       -0.07963454 -0.17006627 -0.17480817 -0.03496392
000010 66 dd de 3d a1 fc 3d be 98 9e fe 3d d1 42 1b 3e
       0.10882072 -0.18553402 0.12432593 0.15162207
000020 a7 d3 e0 3d e1 d5 ab bd 05 31 1e 3d 98 65 8b 3d
       0.109778695 -0.083904035 0.038620967 0.06806487
000030 d7 1b 97 bd 55 e3 5a bd 63 55 07 be cf 8d 1a 3e
       -0.07378357 -0.053439457 -0.13216166 0.15093158
000040 ed a9 63 bc fe 99 73 3d 58 5d 0c 3d ec 66 2d 3e
       -0.013895494 0.05947303 0.034268707 0.16933793
000050 29 6c 98 3b 6c 36 1c 3d 1e ae 91 bd 4b 9c 37 3d
       0.0046515656 0.03813784 -0.07113288 0.044826787
000060 79 6c 16 be 5e 87 e7 bd 07 5b f1 3d 9d 5a 3b 3c
       -0.14689817 -0.11305116 0.1178494 0.011435178
000070 34 13 2e 3c 65 4e 69 3d 84 74 bc 3b f7 f1 ed 3d
       0.010624696 0.05695953 0.0057511944 0.11618417
000080 91 e8 85 3d b6 76 03 be 89 3d 8f bd d6 27 4b 3e
       0.06538499 -0.12838253 -0.06994159 0.19839415
000090 14 8d 01 3e a3 35 82 3c b8 a4 2f 3d 5d e5 e1 3d
       0.12651473 0.015894717 0.042881697 0.11030076
0000a0 a9 f7 67 be 07 b0 15 be 02 92 27 3e 3f 43 18 be
       -0.22653069 -0.1461793 0.16364291 -0.14869402
0000b0 c0 a7 02 be 84 72 51 be 17 72 05 3e fe 96 a5 3d
       -0.12759304 -0.2045384 0.13031803 0.0808544
0000c0 44 65 07 be 1a 35 80 3d 0a 13 23 bd dc c3 35 be
       -0.13222224 0.06260128 -0.03981308 -0.17750496
0000d0 18 15 40 be b5 cf 3a 3d 9d 40 94 bc c5 b4 32 be
       -0.18758047 0.04560824 -0.018097216 -0.1745177
0000e0 24 90 42 3d 41 ad 19 3e 79 67 f5 3d aa 6d 8c 3d
       0.047500744 0.15007497 0.119826265 0.06856854
0000f0 56 e3 49 3d 27 48 4d be ff 13 6a bc 24 73 44 bd
       0.04928907 -0.20047055 -0.014286994 -0.04796137
000100 f6 5c 73 3c 2d 9b 39 bd 4e 8b 38 3d d7 30 bf 3d
       0.014853707 -0.045314003 0.045054726 0.09335487
000110 c8 2f 14 3e 5c 59 39 3c 74 34 a0 bd 3b c5 0d be
       0.14471352 0.011312809 -0.07822505 -0.13844769
000120 5a 7e ea 39 d2 43 e0 3d f7 df b4 bd 68 58 01 3d
       0.00044726097 0.10950436 -0.088317804 0.03157845
000130 89 12 08 bd dc d9 04 3e a3 53 f8 3d ff 30 d8 3d
       -0.0332208 0.12973732 0.121253274 0.1055622
000140 33 f7 1c 3e 3d 31 2e be 60 d1 b1 3d fd a4 d0 bc
       0.15328674 -0.1701097 0.08682513 -0.025469298
000150 ee 60 be 3d dc 1f fe 3d d8 a3 51 3e 3f 50 8c bb
       0.092958316 0.124084204 0.20472658 -0.004282027
000160 6c c9 1a be 89 cb 01 3e a4 77 cc 3d 6a e6 ec bd
       -0.15115899 0.12675299 0.09983757 -0.115673855
000170 c7 ce 1e be be b6 0e bd 35 0b c0 bd f1 df c9 bc
       -0.15508567 -0.034842245 -0.093771376 -0.024642916
000180 84 fb 5b 3d c1 19 62 bd 1b b3 c7 3d 4e 38 a8 bd
       0.05370666 -0.055200342 0.097509585 -0.08213864
000190 62 39 0e 3e 47 60 66 be bb 11 9a 3d b9 fb 1c be
       0.13889077 -0.22497664 0.07522913 -0.153304
0001a0 5c 93 f1 3d 60 e4 74 bc d1 c5 2f 3e e6 58 96 3d
       0.11795685 -0.014947027 0.17165305 0.07341175
0001b0 49 9d 78 3d fa ed ad 3d 73 09 bb bd 66 0f ab ba
       0.060696874 0.08492656 -0.09132662 -0.0013050854
0001c0 52 33 cc bc 39 f4 45 be 6e 07 5b be 7f de b5 bc
       -0.024926815 -0.19331445 -0.21389553 -0.022200821
0001d0 80 9c 2d be d2 f9 01 be 64 96 4b be ba 9e 79 3d
       -0.16954231 -0.12692955 -0.19881588 0.06094239
0001e0 2b 3c 9b bd 21 a8 39 be 1b 5b 18 3e bb e5 64 3d
       -0.075798355 -0.18130542 0.14878504 0.05588315
0001f0 a2 47 55 3e 37 3e 08 3e 8b 93 44 3d d7 4e 01 bb
       0.20828107 0.13304983 0.04799227 -0.001973083
000200 e4 42 52 bd 22 e3 2e 3e 97 cd e1 bd 46 2e 09 3d
       -0.051333323 0.17078832 -0.11025541 0.033491395
000210 24 1d 26 3e 7b a5 bb 3d bf 2c 06 3e 72 f0 09 be
       0.16222054 0.09162422 0.13103007 -0.13470629
000220 90 f2 a9 bd de 18 2c be ed 3f 96 3d 4f 62 34 bd
       -0.08298218 -0.16806361 0.073364116 -0.044039067
000230 da 7a 19 bd 34 df 5b be 37 b2 0b be bc 2b b5 3c
       -0.037470676 -0.21471864 -0.13642202 0.02211558
000240 73 bd 0b 3e e4 2e 52 3e 0d ef f8 bc 52 8d d0 bd
       0.13646488 0.205257 -0.030387426 -0.10183205
000250 b0 64 06 be e3 a6 35 3c
       -0.13124347 0.011087152

model.3.weight f4 [16, 6, 5, 5]
000000 d0 35 8c 3d bd 0e 69 bc df 2c ef bb db 8f 00 bd
       0.068462014 -0.014224705 -0.00729905 -0.03138719
000010 aa 91 6b 3c 03 16 2d 3d 5d fe d1 bb 02 89 6b 3d
       0.014377991 0.04225732 -0.0064084963 0.057503708
000020 28 6f 44 3d 8c 0d bc 3c 0c 5b 86 bd e2 5f 50 bd
       0.04795757 0.022955678 -0.065603346 -0.05087269
000030 1d 1d 7d 3d 8a 1d c9 bb 1f 3f fa 3c a9 a3 c0 bd
       0.061795343 -0.0061375545 0.030547677 -0.09406216
000040 eb 0f 29 bd cf da cd bd c3 cc e9 bc a8 66 cd 3c
       -0.041274946 -0.100515 -0.02854002 0.025073364
000050 06 a8 66 bd 52 e0 51 bd d5 61 2d bd cf 94 10 bd
       -0.056312583 -0.05123932 -0.042329628 -0.035298165
000060 1c 95 4a 3b 35 60 b6 bd 52 91 65 bc fb dd 5d bd
       0.003091163 -0.08905069 -0.014011698 -0.054166775
000070 f8 4e 2e bd 5c 69 be bd 5f d6 06 3d 4e 5e bc 3c
       -0.04255578 -0.092974395 0.032919284 0.022994187
000080 8e 1b 06 3d 94 ea f9 3c e6 7f f7 3c d8 bd 70 3c
       0.032741122 0.030507363 0.030212354 0.0146937
000090 d0 dc a4 3d 7e e1 32 bb c5 50 30 3d 69 f0 66 3d
       0.08049929 -0.0027295048 0.043045778 0.056381617
0000a0 bf aa 7f bd 58 cf 45 bd 7e b2 97 3c 38 85 91 3d
       -0.062418696 -0.04829344 0.018517729 0.071054876
0000b0 2c a0 4b bd 61 4c 65 bd b3 05 b9 bd b0 00 b2 3c
       -0.0497133 -0.055981044 -0.0903429 0.021728843
0000c0 a0 9b 91 3c 66 18 0a 3d 31 d5 2c 3d 46 6e a4 3d
       0.017774403 0.033714674 0.042195503 0.080288455
0000d0 0d c7 2d 3c 05 bf 2f bb 67 aa 87 bd 3c 1d 72 3c
       0.010606539 -0.0026816737 -0.066242985 0.014777478
0000e0 42 06 8e bd 32 8b 28 bd ae d6 0b bc 28 1b 17 bd
       -0.06934787 -0.041148372 -0.00853507 -0.036891133
0000f0 e3 76 e8 3c 2f 74 82 3c ad 4a ec bb 4f 06 68 bd
       0.028377002 0.015924541 -0.0072110505 -0.05664664
000100 58 5e b2 bd 9a 8c 2b 3c fa d4 d6 bd 5a f6 d1 bd
       -0.08709401 0.010470534 -0.10489841 -0.10252066
000110 41 8d 4f bd cb 0f 28 bd 36 22 a9 3b 3b e3 1f 3d
       -0.05067182 -0.041030686 0.005161549 0.039035063
000120 c1 f2 27 bd 54 d1 92 bd b5 47 40 3d 55 68 c3 bc
       -0.041002993 -0.071688324 0.046943385 -0.02385346
000130 7a cb 1f 3d 09 b3 56 bd 61 0a 62 bd f8 33 92 bd
       0.03901241 -0.052416835 -0.05518568 -0.071388185
000140 a9 77 83 bd a3 12 52 3d 37 24 b1 bd dd b9 c0 3c
       -0.06419308 0.051287305 -0.086494856 0.023526127
000150 6e c4 57 3c 0e da 8a bd a8 01 6c 3d 4d d0 09 3d
       0.013169391 -0.06779872 0.057618767 0.033645917
000160 37 2f 5c 3d 9d ff 83 bc 79 a6 07 3d 58 ed f4 3c
       0.053755965 -0.016113097 0.033117745 0.02989833
000170 ef b6 6d 3c a8 d8 02 bb 79 79 98 3d 18 ba 6b 3c
       0.014508947 -0.0019965563 0.07445044 0.01438763
000180 44 b5 27 bd f3 d2 26 3c 31 d7 47 bd 3d bc 72 bc
       -0.040944353 0.01018213 -0.048789207 -0.014815387
000190 80 9f 08 bc 0d d6 3d bd 69 73 91 bd f5 05 2d bd
       -0.008338809 -0.046346713 -0.07102091 -0.04224201
0001a0 b1 58 24 bd 6b 0f ed 3c 24 84 fd bb 30 fe f2 bc
       -0.040123645 0.028938016 -0.0077366997 -0.029662222
0001b0 38 60 24 bc cb 5f 33 3d 36 7f de bd db c7 91 bc
       -0.010032706 0.043792527 -0.10864107 -0.017795494
0001c0 7d 9b 85 3d 60 3f 59 3d 5c eb 95 bd f4 bf 47 39
       0.06523798 0.053038955 -0.07320282 0.00019049627
0001d0 95 9c c3 bd 70 1b 64 3d f5 e6 7c bd d2 80 b8 3c
       -0.0955135 0.05569023 -0.061743695 0.022522364
0001e0 eb 56 7e 3c 22 f3 19 bd 03 95 d3 bc db 76 05 3c
       0.015523653 -0.037585385 -0.02582789 0.008146013
0001f0 e8 4a 0a bd 94 19 cf bd 82 2f aa bd 80 b8 ee bd
       -0.033762842 -0.101123005 -0.08309843 -0.11656284
000200 6f 2a 55 3d d1 01 e7 bc c9 e3 eb bc f4 a5 89 bd
       0.05204242 -0.028199108 -0.02879514 -0.06721106
000210 11 87 3c 3d 91 03 90 bc 48 64 55 bd 8b d1 88 3d
       0.046027247 -0.017579826 -0.05209759 0.06680592
000220 08 60 b7 3d b5 8c 70 3d 06 b3 34 bd 81 c1 55 bb
       0.089538634 0.05872794 -0.044116043 -0.0032616558
000230 83 7d 6d bd 8d 90 99 3d e2 51 87 3d 7c 3f ac 3d
       -0.057981025 0.07498274 0.06607415 0.08410546
000240 17 ae 91 bd 95 34 3d 3d 46 18 14 3a b3 a6 0f bd
       -0.07113283 0.046192724 0.0005649369 -0.035071086
000250 da 5e 0d 3d 90 0a 15 3d 5a 86 08 bd cb 6b ca bc
       0.034514286 0.036387026 -0.033331253 -0.024709603
000260 9a a2 1b 3d ff 37 71 3d 5d 16 eb bc d1 0a 1e ba
       0.037996866 0.058891293 -0.028697187 -0.00060288334
000270 53 aa 12 bd 4d 2c 71 bd 78 61 51 3d e9 15 02 3c
       -0.035806965 -0.05888014 0.051118344 0.007939794
000280 82 2d a2 3c 6c d3 db bd 89 b9 e7 3c a6 7f 1a bd
       0.01979709 -0.10733685 0.028286712 -0.03771939
000290 9b a8 bf bc e2 3d 9c bd bb 12 0a be dd 28 15 bd
       -0.023395827 -0.07628991 -0.13483708 -0.036415923
0002a0 60 27 1a bd e1 e1 4d 3d 35 a3 63 3c 8f 2d 53 bd
       -0.037635207 0.050264243 0.013893892 -0.05155712
0002b0 67 a4 89 bc 42 97 69 bc 45 b2 68 3d f2 b1 06 bd
       -0.016802026 -0.014257254 0.056810636 -0.032884546
0002c0 42 f4 17 bd af 84 09 bc 95 bc 3c 3d 5f 71 82 bc
       -0.037098177 -0.008393451 0.046078283 -0.0159232
0002d0 c0 7d 88 bc 1e 84 60 3d 01 28 94 bc 75 7e 3f bd
       -0.016661525 0.054813497 -0.018085482 -0.04675146
0002e0 d9 b0 18 3d ae 3b d6 3d 8d 78 54 3c 86 78 6b bd
       0.03727803 0.10460602 0.012968195 -0.057487987
0002f0 76 ef 93 3d 8d f7 6b 3d bb 47 1a 3d d1 59 98 bd
       0.07223408 0.05760913 0.037666064 -0.07439006
000300 53 9b a5 3d df 11 fe bc b3 fd 26 be 4a 07 11 bd
       0.08086266 -0.031014381 -0.16307716 -0.035407342
000310 dc e4 57 3c 99 c2 a5 bd 74 d4 66 bc 3d 96 10 bd
       0.013177123 -0.08093757 -0.014088739 -0.03529953
000320 b7 63 77 bd e7 f2 6d 3d ce 7a 69 bd bc 15 b9 3d
       -0.06039783 0.058092978 -0.05700188 0.09037349
000330 3e f3 85 3d bc 61 3c bd 23 af f7 3c dd 98 19 bd
       0.065405354 -0.045991644 0.030234879 -0.037499297
000340 da 5f 72 3d 4e 72 a9 3d 56 45 e9 3a 99 78 50 3b
       0.059173442 0.08273755 0.0017797153 0.0031810163
000350 33 a5 82 bd ac d6 d5 bc e5 47 03 3d 77 79 aa bd
       -0.063791655 -0.02610334 0.032050986 -0.08323949
000360 7b 9c 72 bd 45 4a 8b bb 7c fc e9 bd ad f6 a8 bd
       -0.059231263 -0.004250797 -0.11425111 -0.08250175
000370 0d b4 3a bc 20 ef 12 bc 70 ef e6 bd 8b 67 d4 3c
       -0.0113954665 -0.008968145 -0.11276138 0.02592828
000380 b9 74 49 3c a8 0b 53 bd d8 c7 ad bd 09 2d b4 3d
       0.012295895 -0.05152479 -0.08485383 0.08797652
000390 2e 0b 11 3c 61 4c a2 3d 19 04 1a 3a 09 36 bc 3d
       0.008852763 0.07924724 0.00058752444 0.09189994
0003a0 41 c8 2b bd e7 9a 80 3d a8 1c 91 3d 18 c5 e0 3b
       -0.041939024 0.06279545 0.07085544 0.006859433
0003b0 05 1f 74 bc 29 85 d8 3c 44 d4 bf 3d c8 13 c7 3c
       -0.014899974 0.026430683 0.09366658 0.024301425
0003c0 ed e5 12 bd a1 a1 67 3c 92 9f b8 3c ad ff b5 bd
       -0.035863806 0.014137656 0.022537027 -0.08886657
0003d0 0d ad c0 bd 52 ff a2 bd e8 50 d9 bc 08 09 9d bd
       -0.09408007 -0.07958855 -0.026527837 -0.07667738
0003e0 98 2f ef bd 2b 45 43 bd 19 ba e8 bc 50 5c b8 bd
       -0.11679 -0.047673386 -0.02840905 -0.09001982
0003f0 ed b8 2c 3d 43 93 e0 bb cd d4 ac bc cf 90 62 bd
       0.042168546 -0.0068534925 -0.021097565 -0.05531388

model.6.weight f4 [120, 16, 5, 5]
000000 bc b2 11 3d cb 4e 5a bd 7b b8 cf bc 3f 1f 1e 3d
       0.035570845 -0.0532978 -0.025356522 0.038604017
000010 3f c4 e6 bc 9e 18 a4 3c 40 3e 44 bc 92 16 3a bd
       -0.02816975 0.02003127 -0.011977732 -0.04543168
000020 f7 2c 25 bc ae a3 56 bc 18 86 53 3b 8b 71 63 bd
       -0.010081521 -0.013100548 0.003227597 -0.055528205
000030 ff 25 02 bd f1 36 db 3c fc 6a 34 bd 65 06 64 bd
       -0.031774517 0.026759597 -0.04404734 -0.05567016
000040 a0 5a b1 3c dd 1b 9a bc 29 e1 0a bc 08 e1 ec bc
       0.021649659 -0.018812114 -0.008476534 -0.028915897
000050 90 51 b3 bc af a8 1e 3c f5 2f 6b bc b8 4e 7a 3c
       -0.021889478 0.009683772 -0.014354696 0.015277557
000060 a2 4d 6e bc b1 b8 44 bb 65 29 10 bd f0 70 25 3a
       -0.014544876 -0.0030017311 -0.035195727 0.00063110795
000070 cb f9 00 3d e1 8c ad 3c 43 84 82 3c 1d 1d 95 bc
       0.03148822 0.02118534 0.015932208 -0.018202359
000080 59 fa f2 3c e2 0b a5 bc 6c 5e 14 3d 4e 8b fd 3c
       0.02966039 -0.020147268 0.03622286 0.030950215
000090 3b 24 83 bc aa 9d 07 3d 54 f2 2d 3d 90 c9 e1 bc
       -0.016008487 0.033109345 0.04246743 -0.027561933
0000a0 93 65 68 bd 37 75 7e bc e3 36 39 bd 08 19 e3 3c
       -0.056737494 -0.015530876 -0.04521836 0.027721897
0000b0 b1 33 43 bd 75 2b 18 bd 32 cc 2e 3d 9a 80 36 bd
       -0.04765672 -0.03715082 0.042675205 -0.044556238
0000c0 11 46 2b bd b2 06 87 3b 01 d2 87 3c 4f 64 04 3d
       -0.041814867 0.004120671 0.01657963 0.032322224
0000d0 8b 28 b4 3c 02 91 17 bd 1b 7f 1b 3c 5f 47 21 3d
       0.021991989 -0.037003525 0.0094907535 0.039374705
0000e0 34 45 bc 3c 46 4d 24 3d bc d3 94 bc 13 d8 0c 3d
       0.022982217 0.040112756 -0.018167369 0.034385752
0000f0 d0 7d 42 bd 1a 36 44 3c d1 6b 44 bd 7c 9f a1 3c
       -0.047483265 0.011975789 -0.047954384 0.019729368
000100 cf 11 59 3a 2f eb 17 3d 99 84 d2 bb 96 47 48 bd
       0.0008280547 0.037089523 -0.0064244983 -0.048896395
000110 93 10 fa bc 45 0b d2 bc a4 9d 5f bd b0 12 9f bb
       -0.030525481 -0.02564014 -0.054593697 -0.0048545226
000120 b7 6d 08 bd 9b 80 2a 3d 07 d4 28 bc 08 a4 28 bd
       -0.033307757 0.041626554 -0.0103044575 -0.041172057
000130 59 16 38 bd 92 d0 18 bb 4b 06 0a 3d 7e 31 51 bd
       -0.044943187 -0.0023317677 0.033697408 -0.05107259
000140 33 31 55 ba 89 6d 38 bd fc 1f 41 bd d5 02 49 bd
       -0.00081326364 -0.045026336 -0.047149643 -0.049074966
000150 7b 81 46 bd 54 a5 1e bd 8d 97 41 bc 38 6d e9 3c
       -0.048463326 -0.038731888 -0.011815918 0.028494462
000160 4b b3 92 3c b0 2a 62 3c 07 28 84 3c a8 fd ab 3b
       0.01790776 0.013804123 0.016132368 0.005248744
000170 90 a6 12 bd fb e2 e8 bc 55 ec fa bb e6 bc 34 bd
       -0.035803378 -0.028428545 -0.0076575675 -0.04412546
000180 78 aa fc 3c 14 c6 46 bd 4f 79 41 bd 28 4d f4 3c
       0.030843005 -0.048528746 -0.04723483 0.029821947
000190 da f2 d0 bb 18 d0 2a 3d 82 ec 4f bc d1 91 b1 3c
       -0.0063766064 0.04170236 -0.012690665 0.021675976
0001a0 07 23 c9 3a 68 99 1f bd 13 45 3a bc 92 55 01 3d
       0.0015345522 -0.03896466 -0.011369008 0.031575747
0001b0 25 b7 25 bd a1 e0 e6 bc 1e 5a 6f 3c e6 43 aa 3c
       -0.040457863 -0.028183283 0.014608888 0.02078433
0001c0 4f 06 64 3c 64 01 a7 3b b4 19 e3 bc 01 39 9a 3b
       0.01391752 0.0050966013 -0.027722217 0.0047065024
0001d0 e6 7c 50 3c 76 c9 eb bb 95 eb a7 3c 5e 41 55 bd
       0.012725091 -0.007195647 0.020498076 -0.052064292
0001e0 f6 b0 97 3c 84 2c d1 3c 59 e8 f7 bc f0 8e ae bc
       0.018516999 0.025533922 -0.03026216 -0.021308392
0001f0 fa 1f 2f bd 11 d8 1a 3d 78 8c a5 bc bf f4 00 3d
       -0.042755105 0.037803713 -0.020208582 0.031483408
000200 e0 d6 3e bc 75 0b d1 3c 95 bc fe 3b c2 52 60 bd
       -0.01164791 0.025518158 0.0077739456 -0.054766424
000210 48 19 dd 3c 6e d4 d9 3c 31 43 05 3c 3c a3 cf bc
       0.026989594 0.026590552 0.008133695 -0.02534639
000220 61 be b2 bb e4 58 78 3c f8 5b f4 3b 82 d8 94 bc
       -0.005454824 0.015157912 0.0074572526 -0.018169645
000230 d3 2d 44 bd ec 71 fb bc e1 29 62 3c 1b 75 16 3d
       -0.047895264 -0.03069397 0.01380393 0.036732774
000240 89 2f 2b bd 78 04 d8 3c 26 4b 24 bc 64 36 05 bd
       -0.04179338 0.026369318 -0.010027682 -0.032522574
000250 d5 e4 da bc 06 d3 6a bc 06 7b ec 3b c5 66 a5 bc
       -0.026720444 -0.0143325385 0.007216814 -0.020190606
000260 d8 10 a9 bb 14 8c bd bc e5 09 2c 3d bb 2f b4 bc
       -0.0051594786 -0.023138084 0.042001624 -0.021995416
000270 0d 46 02 3d 8e 20 a8 bc be e3 f7 3a e5 de 31 bd
       0.031805087 -0.020523336 0.0018912477 -0.04342546
000280 a1 1a 7d 3c 9a c4 49 bd 4b 19 dd bc 95 99 68 bd
       0.015448243 -0.04925976 -0.0269896 -0.056787092
000290 21 d8 36 bd 65 6c 24 3d 24 b4 dc 3c 07 a4 0d bd
       -0.04463971 0.040142436 0.026941366 -0.034580257
0002a0 96 2a 2f bd d2 08 2e 3d b3 58 45 bd 87 90 2f ba
       -0.042765222 0.04248888 -0.048180293 -0.00066972565
0002b0 84 e8 20 bd 48 6f 3e bd a4 43 bc bb c0 3e 59 bd
       -0.039284244 -0.046492845 -0.005745368 -0.05303836
0002c0 28 0b 5d 3c 0a 37 5e bb 91 9b 0b 3d 3f 01 d2 bc
       0.013491429 -0.0033907318 0.034083907 -0.02563536
0002d0 ca ba 12 3d 51 e6 bf bc bc c2 f2 3c e3 14 14 3d
       0.035822667 -0.023425253 0.029633872 0.03615273
0002e0 f0 8b 63 3c 45 d1 a7 3c c3 60 b4 bc 28 fc fa 3c
       0.013888344 0.02048553 -0.022018796 0.030637816
0002f0 16 ab 7e bb a7 0e b1 3b 8b 4f 97 bc ee fc a8 bb
       -0.00388593 0.005403358 -0.018470546 -0.0051571047
000300 3f 7f 94 bc f9 a4 c4 bc d8 49 4b bd 9b 6b 1b bd
       -0.018127082 -0.024004446 -0.04963097 -0.037944417
000310 d2 22 03 bd bd df 22 bd 25 eb cb 3a 2d fa fd 3c
       -0.03201563 -0.039764155 0.001555775 0.031003082
000320 13 1b 60 bd 37 cc 83 bc 53 30 1e 3b 3a 69 48 3c
       -0.05471332 -0.016088588 0.002413769 0.012232119
000330 08 07 3d bc d5 be 82 3b 38 f0 18 3d 5b 80 49 3c
       -0.011537321 0.003990034 0.037338465 0.012298669
000340 15 d9 40 bd 82 07 b8 bc e5 52 29 3d 18 7b 56 bd
       -0.047082026 -0.022464518 0.04133882 -0.052363485
000350 bc e6 8f bc dc 92 08 3d 5f 26 90 3c aa f3 c4 bc
       -0.017566077 0.03334318 0.017596422 -0.02404197
000360 6e 03 4b 3b 8e ba 38 3b 12 65 07 3c bb 22 82 bc
       0.0030977386 0.0028187367 0.008263843 -0.015885701
000370 8a 56 ec bc de 14 09 bd a5 cb 80 bb c7 94 c2 3c
       -0.028849859 -0.033467166 -0.0039305263 0.023752583
000380 19 2e 27 bd c4 93 d0 3c 3d eb 56 bb f6 d9 2d 3c
       -0.040815447 0.025461085 -0.0032794022 0.010611048
000390 b0 77 3a bd 58 db 0a 3b 92 3b b9 3c f3 a5 6a bd
       -0.0455243 0.0021187868 0.022611413 -0.057287168
0003a0 56 3f 4a 38 9c af 1e 3d e9 71 95 38 4c 28 10 3d
       4.821954e-05 0.038741693 7.126091e-05 0.03519468
0003b0 35 48 1d 3d aa 21 99 bc 9f a8 79 3c db c3 30 bd
       0.03839894 -0.01869281 0.015237956 -0.043155532
0003c0 83 72 bf 3b 5b 51 2b bd 39 06 4f bd 2f eb 89 bc
       0.0058425083 -0.041825633 -0.050543044 -0.016835777
0003d0 4f 5d cc bb 27 3c 07 bd b0 b2 58 3c b2 56 1c bc
       -0.006236709 -0.03301635 0.013226196 -0.009542154
0003e0 d6 ce 72 bc c1 67 77 bd 16 7b 09 bd 4f 14 47 bd
       -0.014819821 -0.06040168 -0.03356465 -0.048603352
0003f0 5b e8 94 bc 29 87 6c bc d2 08 79 bc d6 44 0b bd
       -0.018177202 -0.014436522 -0.015199857 -0.034001194

classifier.weight f4 [84, 120]
000000 84 a3 ae 3c cb 52 74 3a 2b 05 81 3d d3 34 bf 3d
       0.021318205 0.00093201984 0.06299814 0.09336247
000010 82 9e 54 bd 77 cf 8b 3d f7 a4 8d bc 30 66 90 bd
       -0.051908977 0.0682668 -0.017290575 -0.07050741
000020 84 5c 57 bd 30 aa 84 bd 8a 3b ce 3d de 05 93 bd
       -0.052578464 -0.06477773 0.1006995 -0.071788535
000030 db b7 65 bd fe ad 8f 3d fc e2 b1 3d d8 e5 96 3c
       -0.05608354 0.07015608 0.08685872 0.018420145
000040 00 22 a2 bd e0 17 7c 3d 49 8f 6f 3c c7 2a 77 3d
       -0.07916641 0.061546206 0.014621564 0.06034353
000050 d8 79 e8 3b f1 6e 91 bd 59 a7 77 bb 8d 67 45 3d
       0.007094603 -0.071012385 -0.0037788956 0.048194457
000060 50 ac b1 3d 45 1f c2 3c 9b 43 a2 3d a2 17 2a bd
       0.08675444 0.023696551 0.07923051 -0.041526444
000070 4c 80 1a bc c9 19 b1 bd 65 de c5 3d ab 66 b9 3d
       -0.009430002 -0.08647496 0.09661559 0.090527855
000080 24 93 82 bd d5 6d b1 bc e6 be 4e 3d 43 96 a5 3c
       -0.06375721 -0.021658817 0.050475024 0.020213252
000090 f0 bc b0 3d 3e c3 dc bc 76 d3 44 bd 2e 26 da 3c
       0.08629787 -0.026948567 -0.048053227 0.026629534
0000a0 1b 48 a4 3d 5f a9 93 bc 28 ae 1d bd 90 ab 9f 3d
       0.080215655 -0.018025098 -0.038496166 0.07796395
0000b0 c7 f6 fe 3b 26 8b 5e ba e0 59 a3 bc c3 c0 1d 3d
       0.007780883 -0.00084893627 -0.019940317 0.03851391
0000c0 8c 51 5e bd 1e 99 44 bd b1 52 1b 3d 6b 91 c9 bc
       -0.054276988 -0.047997586 0.037920658 -0.024605474
0000d0 51 0e a9 3d 6e 76 10 3d 3e 94 2a bd 19 c3 19 bd
       0.08254684 0.035269193 -0.04164528 -0.037539575
0000e0 da 57 d1 bd 4e 28 46 3d 4b 84 6a 3c 39 5c 9f 3c
       -0.102218345 0.04837828 0.014313768 0.019453155
0000f0 5d 18 d3 3b 0e b5 ac bb d6 28 b3 bd c4 3a bb 3d
       0.0064421133 -0.005270607 -0.08748023 0.09142068
000100 69 dc 60 3c 1d a1 d2 bc c1 99 1c bd 5b 82 30 3d
       0.013724425 -0.02571159 -0.03823257 0.043093067
000110 c1 9f bf 3d 09 13 01 bd 01 22 a7 3d 6e 7b 71 bd
       0.093566425 -0.031512294 0.081607826 -0.058955602
000120 1c 82 04 3c 92 4d 3c 3c da 56 4d bc 0c 99 76 bd
       0.008087661 0.011493104 -0.012532914 -0.06020455
000130 b4 c0 13 3c e6 51 98 3d 82 de 66 39 31 5b e8 3c
       0.009018112 0.07437496 0.000220174 0.028363796
000140 df a9 99 3b 36 d3 7e bc de e2 25 bd 34 67 b3 bc
       0.0046894397 -0.015553286 -0.04049956 -0.021899797
000150 ce 28 59 bd ab 1d a5 bc cf 8a b7 bd f5 42 f4 3d
       -0.05301743 -0.020155748 -0.089620225 0.119268335
000160 c3 ba e4 bc f7 c1 9b bd ee 36 7b 3d 07 41 74 bd
       -0.027921086 -0.07605355 0.061331682 -0.059632327
000170 9a 44 07 bd f6 2c b0 3d 23 23 74 3b 24 09 4b 3d
       -0.033024408 0.086023256 0.0037252388 0.049569264
000180 a3 b7 f2 bc 32 c1 d7 bd fc 7f 98 3d 86 16 c4 bc
       -0.02962858 -0.10534896 0.07446286 -0.023936521
000190 7a 70 3a bd bc 72 d7 bd 07 d6 f2 3c 0b 65 13 3d
       -0.045517422 -0.10519931 0.029643072 0.035985034
0001a0 2e 26 4b 3d d9 3e b3 bd 34 4f a9 3d 23 b2 8b 3d
       0.049596958 -0.087522216 0.0826706 0.06821086
0001b0 7e 58 7e bb 04 62 17 bc 9c dd c4 bd 2f 18 01 3d
       -0.003881007 -0.009239677 -0.09612581 0.031517204
0001c0 f2 d2 41 bd 7b 88 19 be c5 00 94 3c ab 37 bf 3c
       -0.047320314 -0.1499347 0.018066773 0.023341974
0001d0 a6 59 d3 bb ab da 98 bd a0 8f 72 bd 56 51 c6 3c
       -0.006449896 -0.074635826 -0.059219003 0.024208706
0001e0 78 48 80 3d 61 84 31 bd de 32 b0 3d 5b d8 60 3b
       0.06263822 -0.043339137 0.08603452 0.0034308645
0001f0 d9 e6 3d bd af 33 0a be 8d 7d 8f 3d e5 44 a2 3b
       -0.04636273 -0.13496278 0.07006369 0.0049520605
000200 af 19 38 bd 8d e2 b3 3d 5e f7 c5 3c f0 e0 70 3d
       -0.04494637 0.087834455 0.024165805 0.058808267
000210 58 d4 6b bd d8 e8 4c bd eb 23 c9 3d 7d 00 f3 bb
       -0.057575554 -0.050026745 0.09821304 -0.0074158297
000220 54 c9 a8 bd e7 5a ac 3d bf 49 fe 3b b1 72 f2 bc
       -0.08241525 0.08415776 0.007760256 -0.029595705
000230 71 01 52 3d 7d b2 4f 3d 65 a9 8e 3b 94 18 3d 3d
       0.051270906 0.05070733 0.0043536895 0.046166018
000240 c3 3a e5 3d 22 b1 f5 bc 2f 77 04 be 6c 65 0b bc
       0.111928485 -0.02999169 -0.1293609 -0.008508068
000250 e7 65 88 bd ad db 57 bd a8 be 14 3c f7 ef fd 3c
       -0.06660061 -0.052699734 0.009078659 0.030998213
000260 cd c1 51 bd a8 a0 02 3d b1 36 20 bd c3 a7 4e bd
       -0.051210213 0.031891495 -0.039114658 -0.05045296
000270 c1 96 0a 3d d2 92 2a 3d 50 c7 fd bb 83 e8 53 bd
       0.033835176 0.041643925 -0.007744707 -0.051735412
000280 38 f4 c7 bb 71 55 c0 3c 5c 46 62 3d 6d 64 13 3d
       -0.006102111 0.023478242 0.05524288 0.035984445
000290 0e 6f a9 3a 9e 9b aa 3d 75 2a 9c bd 35 0f fc 3c
       0.0012926774 0.08330463 -0.076252855 0.03076897
0002a0 2e 5b 87 bd b9 1e 08 3e 0f f1 95 3d cc 43 17 3d
       -0.06609188 0.1329297 0.07321369 0.03692989
0002b0 4d ca 72 bd 5c ed 09 bd 2c f0 68 3d 51 45 84 ba
       -0.05927496 -0.03367363 0.05686967 -0.0010091459
0002c0 53 1a 0c 3d 09 b6 3f bd f0 65 e3 3d 33 c6 40 bd
       0.034204792 -0.04680446 0.111034274 -0.047064018
0002d0 13 82 51 bd 1f b0 b1 bd 78 8c da 39 5b 31 a8 bd
       -0.05114944 -0.086761706 0.00041684858 -0.08212539
0002e0 78 a8 05 3c 05 b4 9b 3d 3e f1 9d 3c f5 70 d9 3c
       0.008157842 0.076026954 0.019280072 0.02654312
0002f0 c0 5a e6 bc 71 47 f6 bb d2 76 d6 3d 77 ea d8 bc
       -0.028119445 -0.0075158407 0.10471882 -0.026478989
000300 3f 89 c8 bc 95 3a 72 3d 8e 2c 99 3d e6 eb ca 3c
       -0.024479507 0.0591379 0.07479201 0.024770688
000310 a2 3d d0 bd fd e8 37 3d 51 1d 60 bd d8 cd 64 3d
       -0.101680055 0.04489993 -0.05471546 0.05586037
000320 47 b1 2b bd 38 2d f0 3d c3 ad 5e 3d 1d 96 49 3d
       -0.04191711 0.11727375 0.05436493 0.049215425
000330 49 67 1f bc 61 86 49 3d 6f 66 3f 3d 81 87 a2 bd
       -0.009729215 0.04920042 0.046728548 -0.079360016
000340 9f 90 96 3d 67 c7 79 3c b0 7e 4f 3d 3a 94 f3 3c
       0.07351803 0.015245295 0.050657928 0.029733766
000350 36 46 34 be ea 96 c5 bc 4f ee ce bc 53 49 88 3d
       -0.17604908 -0.024119813 -0.025260119 0.066546105
000360 9a 8d 99 3d 02 a6 82 3c 57 8b 01 3d da 5b 51 3d
       0.074977115 0.0159483 0.031627025 0.051112987
000370 58 3b 05 3d 63 a4 89 3b 43 f3 b6 3d 6d a6 83 3d
       0.032527298 0.0042005046 0.08933117 0.064282276
000380 d2 d4 3d 3d ce bd 12 3d e4 33 5f 3c 95 9c 6d bd
       0.04634554 0.035825543 0.0136232115 -0.058010656
000390 1a 28 d6 bd 6d 92 63 3d 83 06 90 bd 73 4e c9 3d
       -0.104568675 0.055559564 -0.07032492 0.09829416
0003a0 97 08 a9 bd 3e f7 26 bd 68 9d a3 bd 0c d0 3c bd
       -0.082535915 -0.040763132 -0.07989007 -0.046096846
0003b0 6d 1f 87 bd bf ad 3e bd 8b 60 fd 3c f3 3c 99 bd
       -0.06597791 -0.046552416 0.030929824 -0.07482328
0003c0 e1 22 4f 3d de bd 40 bd 7f e1 60 bd 0b 68 5e bc
       0.050570372 -0.04705607 -0.05490255 -0.01357461
0003d0 01 db 9e 3d b6 f9 21 3d c3 9b 41 3b 20 78 82 3d
       0.077566154 0.039544784 0.0029542304 0.06370568
0003e0 b7 44 e3 3d 2f 6b 15 3d 77 db 04 bc 18 06 79 bc
       0.11097091 0.03647917 -0.008108965 -0.015199207
0003f0 1b a7 9d 3d 13 6f 26 bd b3 12 6d bb a7 22 e3 3c
       0.076978885 -0.040633272 -0.0036174476 0.027726484

classifier2.weight f4 [10, 84]
000000 3c b5 54 bd be 2c b2 3d 5d 14 44 3d e3 a7 69 3d
       -0.05193065 0.0869994 0.047870982 0.057044875
000010 61 2d d6 3d 8d f4 8c 3d 5b 4f ef bc d6 62 68 3d
       0.10457874 0.06882582 -0.029212644 0.056734882
000020 ce 29 29 bc 27 8b 70 bd 1b d6 6e bd 10 bf 03 3d
       -0.010324908 -0.058726456 -0.058309656 0.032164633
000030 d8 b1 2e 3d 84 97 a0 bd c4 1e 5e bd b9 93 19 3d
       0.042650074 -0.07841399 -0.05422856 0.037494395
000040 74 f3 d8 3c 17 df 7b 3c cc 48 0c 3b 57 40 cc bd
       0.026483275 0.015373013 0.0021405695 -0.09973209
000050 7a fe ec bd 74 ec ae bd 2e 4f 94 3c 76 bd d4 bd
       -0.11571975 -0.085411936 0.018104162 -0.10387699
000060 e7 f4 c4 3d b7 14 ac bd cf 94 f3 bc b4 be b4 3d
       0.09617024 -0.084023885 -0.029734043 0.08825436
000070 e5 7c db bc 07 cf 02 bd 48 ab b9 3d 39 ed 6a 3b
       -0.026792953 -0.031935718 0.090658724 0.0035846962
000080 f5 52 8b bd 9a e7 8e 3d 43 34 fd bd d4 0c c3 3d
       -0.06802932 0.06977768 -0.12363484 0.09523931
000090 73 a3 12 3d 1b 87 af 3c aa 95 c3 3d 5d a4 a5 bd
       0.03580041 0.021426728 0.095500305 -0.080879904
0000a0 1e 34 08 3e ea 3b e5 3d 80 0e 79 bd 29 ce c0 3d
       0.13301131 0.11193068 -0.060804844 0.09414322
0000b0 e8 0c f5 3c 1d d1 c1 bc f8 fa d0 3c aa e7 85 3d
       0.02991338 -0.023659283 0.025510296 0.06538327
0000c0 46 a6 9e bc 28 a3 95 bd 6b c4 dc 3c 85 34 55 bc
       -0.019366395 -0.0730651 0.026949128 -0.01301301
0000d0 f0 4e 88 bd eb f7 92 bd cc 02 9e ba 48 f1 45 bc
       -0.06655681 -0.07176193 -0.0012055277 -0.012081452
0000e0 16 e7 5a bb 38 de 48 3d 02 a5 d9 3d dc d5 72 3d
       -0.0033401898 0.04904005 0.10627176 0.059285983
0000f0 0d 78 58 3d 07 ba 67 bc c7 8f f6 3d 48 66 06 bc
       0.052848864 -0.0141434735 0.12039142 -0.008203097
000100 a1 54 31 3d f6 1c 87 39 e4 c5 a1 bc e1 ae 9d 3d
       0.0432936 0.00025770784 -0.019747682 0.07699371
000110 41 4a db 3d 2d 04 89 3d 0e a3 a3 3d a5 3e b3 3d
       0.10707522 0.066902496 0.079900846 0.08752183
000120 00 8a ed 3d 12 7d a5 bc 90 6b a0 bd d7 a4 ca bd
       0.11598587 -0.02020124 -0.07833016 -0.09894722
000130 15 5b 1c 3d db 72 85 3c 8d d7 ae bd 82 6c 10 bd
       0.0381728 0.016290119 -0.08537207 -0.03525973
000140 9a 0c 92 bc 6b 53 8c bd 59 ad f9 bd 6c 40 f9 bc
       -0.017828275 -0.06851848 -0.121912666 -0.030426227
000150 e9 80 cb 3d ba ba d8 bd 27 c7 7f bc 66 ff e6 bc
       0.09936697 -0.1058249 -0.015611446 -0.028197955
000160 67 52 69 bb a7 75 84 3d be a6 8b 3d d9 01 84 bd
       -0.0035602094 0.06467753 0.06818913 -0.06445665
000170 25 2a 80 3d c7 5b 04 bd 7d 39 ed bd 24 30 45 bc
       0.062580384 -0.03231409 -0.11583231 -0.012035403
000180 ad 80 00 be ba 04 b7 3d 3b ac 95 3d 67 b5 79 3c
       -0.12549086 0.089364484 0.07308241 0.015241004
000190 3b 62 1e bd d5 dc 6c 3d 71 24 ed bb 71 42 4d bb
       -0.0386679 0.05782779 -0.00723701 -0.003132012
0001a0 b2 cc c7 3d 86 80 9a 3d 56 b8 a2 3c 87 0c 77 bd
       0.097558394 0.07544045 0.019863289 -0.06031468
0001b0 02 ec b2 3d ad ff a0 3d 54 42 1a bc 9c ca 26 3d
       0.08736421 0.07861266 -0.009415228 0.040720567
0001c0 42 17 c3 3d 7b cb 22 3d 70 e5 89 3b ef 53 40 bd
       0.095259205 0.039744835 0.0042082593 -0.046955045
0001d0 e8 60 93 bc 8c 33 fe 3c 17 dd 06 be 54 4e 80 3d
       -0.017990544 0.031030439 -0.13170277 0.0626494
0001e0 4e 01 64 3d c8 63 63 bc 6c 66 9b 3d 3b 50 9a bd
       0.055665307 -0.01387877 0.07587895 -0.07534834
0001f0 41 6c 4e 3d 08 59 b1 bc 4f 7c 81 3a ae ea ab 3c
       0.050396208 -0.021648899 0.0009878966 0.020985927
000200 60 ae 9e bd 89 e3 17 bd 83 74 07 3c 82 62 be 3d
       -0.07748103 -0.03708223 0.008267525 0.092961326
000210 7c c4 8b bd 1d e9 79 3d 08 18 87 bc 52 4a 5c bd
       -0.06824586 0.06101333 -0.016490951 -0.053781815
000220 dd 59 09 3d 55 a0 3f 3d c0 b8 26 3d 37 46 03 3d
       0.033532966 0.046783764 0.040703535 0.032049384
000230 00 da 8e bd 53 7b 9c bd 80 76 0f bd 3e cf e0 3c
       -0.06975174 -0.0764071 -0.03502512 0.02744257
000240 7b ea 51 3d 80 8f 4a 3d 4e 8c 14 bd 10 d8 9c bd
       0.05124901 0.04945326 -0.036266617 -0.07658398
000250 49 c0 4b 3d 8d 70 a7 bd 00 f9 1f 3d da 1b 48 bc
       0.049743924 -0.08175764 0.039055824 -0.012213672
000260 8f 4b 5d 3c e5 61 bf 3d f1 2f 73 bd 41 f1 a2 3d
       0.013506784 0.09344844 -0.059371892 0.07956172
000270 58 6e cd 3d cc b7 37 bd d7 0b e4 3c eb 36 82 3c
       0.10030812 -0.044853017 0.027837677 0.015895328
000280 92 9c fc bc 40 d6 5a bd 2c 2c d4 3b 4a ad 9f bd
       -0.030836377 -0.05342698 0.0064749923 -0.07796724
000290 3b 2f 56 3b 87 f7 f3 bd 38 fb e0 3a d8 45 57 3d
       0.003268196 -0.119124465 0.0017164713 0.052556843
0002a0 26 f3 d3 bc da c0 d4 3c e4 56 51 3d 83 9a a3 3b
       -0.025872778 0.025970865 0.051108256 0.0049927845
0002b0 69 62 cb 3d d9 05 bd bd a3 c9 d2 3d ee f5 a5 3d
       0.099308796 -0.09229631 0.102923654 0.08103548
0002c0 37 4e a8 bc 20 06 c4 bd 84 fc cd 3c a3 ad 14 bc
       -0.020545108 -0.09571481 0.025144823 -0.009074601
0002d0 04 c6 0d bd f4 98 b7 3c c3 7d b8 3c 60 58 68 3d
       -0.03461267 0.0224118 0.022520905 0.056724906
0002e0 2b c1 73 3d c5 b3 a1 bc 66 1e 48 bc f6 a4 df bd
       0.05951039 -0.019739041 -0.012214279 -0.10920136
0002f0 c1 6a f5 bc 0b 28 b7 bc 03 e1 4c bd af 93 d2 bb
       -0.02995813 -0.022357961 -0.050019275 -0.0064262967
000300 81 13 14 3d d0 32 8e 3d b5 da 83 bd c0 24 80 3d
       0.036151413 0.069432855 -0.064381994 0.062570095
000310 8e 95 3c 3c df 89 26 bc c9 eb 10 bd ff cc 8e 3c
       0.011510266 -0.010164707 -0.035381112 0.017431734
000320 e9 7e 8d bb 2b ce 6c bd b2 3a 85 bd 9a b7 80 bd
       -0.0043181074 -0.057813805 -0.06505336 -0.06285019
000330 95 19 5e 39 f5 07 7a 3d 35 f1 a0 bd f2 72 8c 3d
       0.000211811 0.061042745 -0.078585066 0.068578616
000340 48 63 7c 3d af e5 19 3d fd 88 1a 3d ca 21 a8 ba
       0.06161812 0.03757256 0.0377283 -0.0012827453
000350 9d fd 9c 3c 68 d0 f1 bc 52 61 f6 3d 72 ab ad bc
       0.019163901 -0.029518321 0.12030281 -0.021199916
000360 e7 3c 9b bd be 01 48 3c 17 e5 31 bc d6 4d e4 bc
       -0.075799756 0.012207447 -0.010857842 -0.027869146
000370 07 35 ac bd 8e 67 18 bd 76 4f a3 bd a3 ff cb bd
       -0.08408552 -0.037208132 -0.0797414 -0.09960868
000380 2e c6 fe bd da 9e bb bd 32 e3 75 bc 32 f0 13 3d
       -0.124401435 -0.09161158 -0.015007781 0.03611774
000390 fd ea 3a bb 26 fb cb 3c 19 e9 cf 3c 06 21 96 bd
       -0.0028521412 0.02490003 0.025379704 -0.073305175
0003a0 a5 50 2a 3d 3d 22 9a bd 02 10 2d bd 34 58 c9 bd
       0.041580815 -0.07526062 -0.042251594 -0.098312765
0003b0 2e cc d7 bc e5 29 a4 bd 6d e2 ec 3d f9 ef c5 3b
       -0.026342478 -0.08015803 0.11566625 0.00604057
0003c0 ed d0 a8 3d 45 d8 de bd 64 b1 19 bd 65 de b3 bd
       0.082429744 -0.10881094 -0.03752269 -0.08782653
0003d0 06 72 af bc 1a e6 e2 3d 96 79 6a bd 7a 95 7f 3d
       -0.021416675 0.11079045 -0.05724486 0.06239841
0003e0 0c 4e 81 bd 90 ae a1 bd 89 1e 06 bc 60 81 95 3d
       -0.063137144 -0.07894623 -0.008185991 0.07300067
0003f0 ad 11 4e 3c 7d 05 01 bc a0 4d 34 3d a7 f2 15 3d
       0.012577456 -0.007874844 0.04401934 0.036608364
